deep_rl_best.model (torch, 2711 bytes, 6 tensors)

fc1.weight f4 [2, 6]
000000 b2 9f 90 be 6d f9 84 3f 30 45 84 3e 55 ff ba be
       -0.28246838 1.0388619 0.25834036 -0.36522928
000010 31 1d b9 be cb 4e 8d bf e3 f2 c9 be f7 e2 bb ba
       -0.36155084 -1.1039671 -0.3944312 -0.0014334609
000020 43 53 9e 3e 52 a5 8e bf 5a 75 82 3e 90 fb 63 bd
       0.309229 -1.1144202 0.25480157 -0.05565983

fc1.bias f4 [2]
000000 6f 32 ca 3d d8 37 7d 3f
       0.09872901 0.98913336

fc2.weight f4 [8, 2]
000000 87 66 2f bf d0 15 2c be e7 5f 4a be 84 01 ac be
       -0.6851582 -0.16805196 -0.19763146 -0.33594906
000010 93 3f 54 3e ad de 48 bf 7b 9a 8a be a0 4f 63 be
       0.20727377 -0.78464776 -0.27070984 -0.22198343
000020 17 35 a6 be 64 b7 83 bf 41 f0 89 bf b8 62 0e 3e
       -0.3246238 -1.0290341 -1.0776445 0.13904846
000030 f6 22 14 bf ea 2e c1 be 7e 64 72 3e 60 ce fb 3b
       -0.57865846 -0.37731105 0.23671147 0.007684514

fc2.bias f4 [8]
000000 d1 a7 9e bd cc d1 a3 bd f6 be 68 40 77 7a a0 40
       -0.07746852 -0.07999 3.6366553 5.0149493
000010 1b f6 96 40 5a 35 8d 40 35 78 2f bf de cd ea 3f
       4.717542 4.4127626 -0.68542796 1.8344076

fc3.weight f4 [16, 8]
000000 06 b0 20 bd 0c 94 38 3e 79 85 d0 3e 13 08 47 40
       -0.03923037 0.18025225 0.40726832 3.1098678
000010 16 b8 39 40 28 fd 32 3f 5f e8 98 3b d1 ab 5b 3e
       2.9018607 0.69917536 0.0046663727 0.21452262
000020 c6 69 1d 3e ea d7 c9 bd 9b e5 48 3f 23 61 c0 bd
       0.1537238 -0.098556355 0.7847535 -0.09393527
000030 a2 77 a9 be 36 d2 1e 3f 66 83 86 be 30 98 69 3c
       -0.33099085 0.62039506 -0.26272124 0.014257476
000040 94 d3 87 3e bc b6 1d 3e 47 4a 47 3e 78 ae d8 be
       0.2652861 0.15401739 0.19461928 -0.4232061
000050 90 98 0d 3e e1 07 a6 3e f5 c1 9e 3d 91 ac 91 3e
       0.13827729 0.32427886 0.07751838 0.2845197
000060 61 04 0e 3d 95 b5 05 bd e1 9a cf 3e 4d 7e e4 be
       0.034672145 -0.032643873 0.4054785 -0.4462761
000070 16 e6 78 be 38 57 d6 bd 5d 95 1a 3e 4b 87 45 3e
       -0.24306521 -0.104658544 0.1509604 0.19289891
000080 74 3e 3e 3e e6 46 65 be 7b c1 88 bd 44 93 3a 40
       0.18578511 -0.22390327 -0.066775285 2.9152384
000090 b6 cf 22 40 da 37 a2 3e 24 e4 0f 3e fe 7e 41 3e
       2.5439277 0.31683236 0.14051872 0.188961
0000a0 8e a8 b3 3e 1a 0c 34 be 2b 92 ec 3e 2b f8 eb 3e
       0.35089535 -0.17582741 0.46205267 0.46087775
0000b0 c5 8d df 3f e1 fa 87 3f 23 96 96 3d e2 80 4c 3f
       1.746514 1.0623437 0.07352855 0.7988416
0000c0 a1 f3 01 3e 56 c0 3d bd e8 fe 47 bd 7d f5 40 3f
       0.12690593 -0.046326004 -0.048827082 0.75374585
0000d0 a5 6d cc 3f 0f ca d7 3d 93 72 4e bc 63 cf 3b 3e
       1.5970961 0.105365865 -0.012600559 0.1834083
0000e0 7b 8b b4 bd 59 13 a8 3e 9e ea e6 3e 1b 49 f4 3f
       -0.08815666 0.3282726 0.45100874 1.908481
0000f0 38 e0 1c 40 88 9b 05 3f 76 d3 b3 be c9 81 44 3d
       2.4511852 0.52190447 -0.3512227 0.047975335
000100 2c c5 c6 bb 63 02 9e 3e fe 7a a5 3f bc 51 89 3f
       -0.006065985 0.30861196 1.2928159 1.0728068
000110 79 4f 22 3f ae 62 ee 3d 95 97 38 3e 18 f6 78 be
       0.63402516 0.116399154 0.18026574 -0.24312627
000120 96 6d 12 3e 21 e0 a9 3e de a0 9b 3f dd 5e ac 3e
       0.14299616 0.3317881 1.2158468 0.33666125
000130 1f b9 11 3f d9 95 01 3f d5 1f bf 3d 42 4f 4c be
       0.569231 0.50619274 0.09332243 -0.1995211
000140 79 b6 b6 bd af a0 47 bd 16 88 69 3f 9b 18 e6 3f
       -0.08921523 -0.048737224 0.91223276 1.7976259
000150 84 59 e2 3e b3 12 11 3f bc 7f 91 3e c3 1d 46 bd
       0.4420892 0.5666916 0.28417766 -0.048368227
000160 46 ee 63 3c 98 9e 2c 3d aa 32 af bd ac 80 8d 3f
       0.013911789 0.042143434 -0.08554585 1.1054893
000170 d9 2f a3 3f 3e 25 2d 3f 21 98 a2 3e ff 64 d0 3d
       1.2748977 0.6763495 0.3175669 0.101755135
000180 6d e8 35 3e 3a 74 94 bd 00 1c 90 3e 44 27 04 40
       0.17764445 -0.07248731 0.28146362 2.0648966
000190 5a 7c 21 40 ee fd f5 be 1b 76 10 be fd 96 5a bd
       2.5232148 -0.48045295 -0.14107554 -0.05336665
0001a0 8c aa 94 be 3a b3 7d bc 97 41 97 3f d3 53 d9 3f
       -0.29036367 -0.0154846255 1.1816891 1.6978706
0001b0 81 7b cb 3f 4d 2e ef 3e 17 3b 45 3e 1c 52 dd 3d
       1.5897065 0.46715012 0.19260822 0.10806677
0001c0 8c 63 90 3e 9d 40 84 be 67 76 c6 3f c9 e4 61 3e
       0.28200948 -0.25830546 1.5504884 0.22059931
0001d0 e6 2e 2d 3f e8 e0 7d 3d 13 ab 03 bd 9d 8d 49 3d
       0.67649686 0.061982065 -0.03214557 0.04920732
0001e0 64 65 a9 3e fc 1a de bd 1b 6d 8d 3e 9d 7c 31 3d
       0.33085167 -0.108449906 0.27622303 0.04333173
0001f0 51 15 63 be 62 c6 8f 3e 3f 3a 8e 3e dd 76 8e 3d
       -0.221761 0.28081042 0.27778813 0.06956265

fc3.bias f4 [16]
000000 02 4c 3b 40 3f d8 b2 bf 04 45 73 c0 78 5c 19 c0
       2.9265141 -1.3972243 -3.8010874 -2.3962688
000010 f0 71 0c 3f ca f4 38 41 66 8a 08 bf 4a d5 15 c0
       0.54861355 11.559763 -0.5333618 -2.3411431
000020 4c b1 ab bf 94 94 77 c0 e0 90 70 40 7c bb 37 c0
       -1.3413482 -3.8684435 3.7588425 -2.8708181
000030 a2 57 38 c0 35 e1 82 bf b5 6a ae 3e ca b1 7a c0
       -2.8803487 -1.0224978 0.34065786 -3.9171014
